SVM MODEL/TRAINED FINAL MODEL/W4.npy (npy, 720080 bytes, 1 tensors)

array f4 [600, 300]
0	0x3d0ad15f	0.033891078
1	0xbdbfcf9c	-0.0936577
2	0xbd438701	-0.04773617
3	0x3c0b429e	0.0084997695
4	0xbd3c712f	-0.046006378
5	0xbd0d5461	-0.034504298
6	0xbde0ce9c	-0.109769076
7	0x3d96890b	0.073503576
8	0xbd9729fe	-0.07381056
9	0x3cc6bcc4	0.024259932
10	0x3e26f8fd	0.16305919
11	0x3e0c113c	0.1367845
12	0xbc98a1c6	-0.018631827
13	0xbc8241bf	-0.01590049
14	0x3e15f383	0.14643674
15	0xbdd1f518	-0.10251826
16	0xbd3056e1	-0.043051604
17	0x3e11c67b	0.1423587
18	0xbd340e33	-0.043958854
19	0xbe05cc9c	-0.13066334
20	0xbc621927	-0.013799942
21	0xbd0e8a25	-0.034799714
22	0xbc90b75f	-0.017665563
23	0x3de4b282	0.1116686
24	0xbdec18f8	-0.115282
25	0xbdab4ee7	-0.08364659
26	0xbd3462cf	-0.044039544
27	0xbdf3b62c	-0.11899981
28	0x3c6f644a	0.014611313
29	0xbd8dc0e1	-0.06921554
30	0xbd02a2bd	-0.03189348
31	0x3cde7ab7	0.027158124
32	0xbd97851a	-0.07398434
33	0x3c59b6cd	0.013288212
34	0xbb777f7f	-0.0037765203
35	0x3ccb98c3	0.024853116
36	0x3dfecd13	0.124414586
37	0x3d292ab4	0.04130049
38	0x3d3c51eb	0.04597656
39	0x3d7cc957	0.06171545
40	0xbd14260a	-0.03616909
41	0xbd62901b	-0.05531321
42	0xbd27e068	-0.040985495
43	0x3d6ee05c	0.058319435
44	0x3d1f5c78	0.038906544
45	0x3d7e743f	0.06212258
46	0x3d1fc2e6	0.03900423
47	0x3d06f4fc	0.03294848
48	0xbd759e0f	-0.05996519
49	0xbbff1118	-0.00778402
50	0x3d1a00dd	0.03759848
51	0x3d1bfd5f	0.03808343
52	0x3b903d59	0.0044018445
53	0xbe008bf9	-0.12553395
54	0x3d52a508	0.051426917
55	0x3daf30a6	0.08554201
56	0xba2d7fc8	-0.0006618467
57	0xbd41c045	-0.047302503
58	0x3d8b02f7	0.06787675
59	0x3d02a1fb	0.031892758
60	0xbb2ae320	-0.0026075318
61	0xbcc34fab	-0.0238417
62	0xbe14c49b	-0.14528124
63	0xbe308145	-0.17236812
64	0xbe19ff26	-0.15038738
65	0x3e82c232	0.25538784
66	0x3d88b2d0	0.06674731
67	0x3d234491	0.039860312
68	0xbe3b3472	-0.18281725
69	0xbdb3ed3d	-0.08785484
70	0xbd561a48	-0.052271158
71	0x3e146a69	0.14493717
72	0x3e04819c	0.12940067
73	0x3da10326	0.07861929
74	0xba856797	-0.0010177967
75	0x3bafceff	0.005365252
76	0xbd0ace2c	-0.033888027
77	0xbe01e29f	-0.12684105
78	0xbd917b58	-0.07103604
79	0xbceca3c6	-0.028886687
80	0xbce7fb4f	-0.028318075
81	0xbca3a24f	-0.019974856
82	0x3e372c47	0.17887984
83	0x3a3e8f55	0.0007269283
84	0xbc8483c9	-0.016176121
85	0xbe2e28e4	-0.17007786
86	0xbcd688d4	-0.026188292
87	0x3cebb7d8	0.028774187
88	0xbd32887d	-0.043587197
89	0xbd6d2688	-0.057898074
90	0xbd80c18c	-0.06286916
91	0xbd50a1d1	-0.05093557
92	0x3d9b8f6a	0.075957134
93	0xbdde9eb8	-0.10870117
94	0x3cd8f40c	0.026483558
95	0xbd8ece4a	-0.0697294
96	0xbd52470a	-0.05133728
97	0x3d9a2ad6	0.075277016
98	0x3d1bbb91	0.038020674
99	0x3d2895ed	0.041158605
100	0xbd8b9dd8	-0.06817216
101	0xbd566ea3	-0.052351605
102	0x3d2d06a8	0.042242676
103	0x3c01d272	0.007923709
104	0xbe166c7d	-0.14689822
105	0xbdb1ee78	-0.086880624
106	0xbce91225	-0.028451035
107	0x3c9c5a70	0.019086093
108	0x3db36f33	0.08761444
109	0x3d04036b	0.032229822
110	0x3d8f7ada	0.07005854
111	0xbd53cf33	-0.051711272
112	0xbe181725	-0.14852579
113	0xbcf21697	-0.029551787
114	0xbd88f515	-0.06687371
115	0xbd537008	-0.051620513
116	0xbd0a0fbb	-0.033706408
117	0x3e37e590	0.17958665
118	0xbdc61163	-0.09671285
119	0xbe0e9572	-0.13924196
120	0xbcb6266b	-0.022235116
121	0x3c05c7bb	0.008165295
122	0xbd981985	-0.074267425
123	0x3da2540a	0.079261854
124	0xbe01a459	-0.1266035
125	0xbc9e6b66	-0.019338321
126	0xbdfec27d	-0.124394394
127	0x3d9972f5	0.074926294
128	0xbd83f84f	-0.064438455
129	0xbc86cdd3	-0.016455567
130	0xbd54d89e	-0.051964395
131	0xbd23585d	-0.03987919
132	0xbdd16ac1	-0.1022544
133	0x3e345f07	0.17614375
134	0x3d641f7c	0.05569409
135	0x3bee7283	0.0072768345
136	0x3d888eea	0.06667884
137	0x3d4a1c6b	0.049343508
138	0x3d98c192	0.074587956
139	0xbdff7a49	-0.12474496
140	0x3e1e1101	0.15436174
141	0x3cc12c8d	0.023580814
142	0xbd7a9e99	-0.061186407
143	0xbe280c0e	-0.16410848
144	0x3d34d78c	0.044150874
145	0xbe05bb4c	-0.1305973
146	0x3c8594c5	0.01630629
147	0xbe378b14	-0.17924148
148	0xbe0dca23	-0.1384664
149	0x3d698a73	0.0570168
150	0x3db6c8fe	0.08925055
151	0xbd6faaaa	-0.058512367
152	0xbc3681a9	-0.011139312
153	0x3cee2779	0.029071556
154	0xbd1f23f9	-0.038852666
155	0x3e01f449	0.12690844
156	0x3cce0898	0.025150582
157	0xbd916491	-0.0709926
158	0x3d4c77a8	0.0499188
159	0xbe2b5497	-0.16731487
160	0xbddfbbd9	-0.10924501
161	0xbdeadfcc	-0.11468467
162	0x3ddbaf90	0.10726845
163	0xbe196f90	-0.14983964
164	0xbb39e821	-0.002836712
165	0xbd8046f3	-0.062635325
166	0xbe0016e4	-0.12508732
167	0x3d903fec	0.07043442
168	0x3d3d6443	0.046238195
169	0xbe2d974b	-0.16952245
170	0xbe07c5bb	-0.13259022
171	0x3d3732f8	0.044726342
172	0x3d89065c	0.06690666
173	0xbe271281	-0.16315652
174	0x3d9bfd2c	0.07616648
175	0xbcfc7006	-0.030815136
176	0x3de542cd	0.11194382
177	0xbdb9ed59	-0.090784736
178	0xbd36a352	-0.04458935
179	0xbc2cd6ae	-0.0105492305
180	0x3c9cb4d9	0.019129204
181	0x3e201696	0.15633616
182	0xbc287c92	-0.010283606
183	0x3e343e69	0.17601933
184	0xbb16e4a9	-0.0023024476
185	0xbbb1a9eb	-0.005421867
186	0xbc8ebffe	-0.017425533
187	0xbdb1a10f	-0.086732976
188	0x3ddbc142	0.107302204
189	0x3d867f16	0.065672085
190	0xbdaa968b	-0.08329495
191	0xbd21eee7	-0.039534476
192	0xbd97afd9	-0.07406587
193	0xbd5f6b50	-0.0545457
194	0xbe0d37e9	-0.1379086
195	0xbd4e33ec	-0.050342485
196	0xbc5ecedd	-0.013599125
197	0xbb705c3e	-0.0036676074
198	0xbdb41cc8	-0.08794552
199	0x3e2a80e9	0.16650738
200	0xbccb9b82	-0.024854425
201	0x3dec789d	0.11546443
202	0x3d024fe7	0.031814482
203	0x3db743a6	0.0894845
204	0xbd96755f	-0.073466055
205	0xbbfa6dd6	-0.007642488
206	0xbe02e2bb	-0.12781803
207	0xbcb611b1	-0.022225233
208	0xbe045d0d	-0.12926121
209	0xbdcabf08	-0.098997176
210	0xbdd49f6c	-0.1038197
211	0x3ac6df0e	0.0015172677
212	0xbca6a187	-0.020340694
213	0xbe21e643	-0.15810494
214	0xbe526fa9	-0.20550407
215	0x3d8ccce0	0.06875014
216	0xbdb50f7e	-0.088408455
217	0x3d0c60d7	0.03427204
218	0x3d155511	0.03645808
219	0x3adcf594	0.0016857856
220	0x3d57e184	0.052705303
221	0x3de740b2	0.112916365
222	0xbcb25d4b	-0.021773001
223	0x3e15e2cb	0.14637296
224	0x3e1ca50b	0.15297334
225	0x3d4bdcd3	0.04977114
226	0x3e9833ce	0.29727024
227	0x3c4b2cc6	0.012400812
228	0xbd1026ef	-0.03519338
229	0xbc0eb6a3	-0.008710536
230	0x3dd0a101	0.10186959
231	0xbe8bb155	-0.2728373
232	0x3d0a43d0	0.033756077
233	0xbe317a32	-0.1733177
234	0xbca7a480	-0.020464182
235	0xbc8c239c	-0.017106824
236	0xbb83d93c	-0.004023699
237	0x3da0406b	0.07824787
238	0xbcf11bfe	-0.029432293
239	0xbd807f2a	-0.062742546
240	0x3bf83f56	0.0075759096
241	0x3da1c1b8	0.07898277
242	0xbdce62fc	-0.100774735
243	0xbdcc00fc	-0.09961125
244	0xbc962813	-0.018329656
245	0x3c6a8a89	0.014315256
246	0xbe50eb0f	-0.20402168
247	0xbe446660	-0.19179678
248	0x3d68b082	0.056808956
249	0xbd9a5c41	-0.07537127
250	0x3e2e50ab	0.1702296
251	0xbc38dd22	-0.011283191
252	0xbd828612	-0.06373228
253	0xbe0c3214	-0.13690978
254	0xbc81f549	-0.015864031
255	0x3d43201a	0.047638036
