SVM MODEL/TRAINED FINAL MODEL/W5.npy (npy, 12080 bytes, 1 tensors)

array f4 [300, 10]
000000 9e 73 0c 3b db 64 04 bb 3f 7c 18 3c b0 70 38 3c
       0.0021431218 -0.0020201716 0.009306966 0.011257336
000010 b0 47 b8 3d d3 8d 4a 3d 62 18 57 bc 39 24 c1 bd
       0.08998048 0.04945166 -0.013128372 -0.09430737
000020 d0 87 58 3d 42 08 dd bb 7d 28 fa 3c 76 9a a5 3d
       0.052863896 -0.006745369 0.030536884 0.08086102
000030 79 a1 f2 3d b0 00 31 3c 8f 89 8c 3d e8 12 8d 3d
       0.11847205 0.010803387 0.06862175 0.06888372
000040 25 6a 9f bd 6d 5a f8 3d 56 48 90 bc c1 ef db 3d
       -0.07783917 0.12126622 -0.017612617 0.10739089
000050 6b 4e c7 3d ea fc 9d bd b9 e6 64 bc c2 77 42 3c
       0.09731754 -0.07714255 -0.013971024 0.011869373
000060 63 4d f0 bd 41 ae 2a 3e be 11 22 bd 74 4a 64 3c
       -0.1173351 0.16668035 -0.0395677 0.013933767
000070 8c f7 0c 3e fc 5e 1d 3e 7d f1 1e 3d 12 63 81 3d
       0.13766307 0.15368265 0.03880452 0.06317724
000080 34 21 9c bd 05 59 0c 3e 90 1a 33 3d 57 45 9c bc
       -0.076235205 0.13705833 0.043726504 -0.019076033
000090 13 85 0a bb bd b6 65 bd ac 16 0b bd 68 9c d9 3d
       -0.0021136447 -0.056082476 -0.03395717 0.10625535
0000a0 1c 1a be bc 2d 2d 80 3d c7 1e 0e 3d 6f 25 6b bd
       -0.02320581 0.062586166 0.03469732 -0.057408746
0000b0 d3 0b 2f 3d 30 f4 f9 bb 05 1c 37 3d e8 7e 7d 3d
       0.042735886 -0.0076279864 0.044704456 0.061888605
0000c0 e7 b6 39 3d 48 c0 e3 3d bc 69 bf bd 4e 0b b3 3d
       0.045340445 0.11120659 -0.09346339 0.087423906
0000d0 ba 4d 05 3e 72 26 f3 3d c8 20 65 bd 9c e5 1a 3e
       0.13017932 0.11872567 -0.055939466 0.15126652
0000e0 80 52 93 3d f9 22 89 3d 65 0c ba bd 10 53 41 3d
       0.0719347 0.06696124 -0.09084395 0.047198355
0000f0 91 f4 0a 3e 87 ef 7b bd 15 d5 85 3d 94 94 ce bc
       0.13569857 -0.061507728 0.06534783 -0.025217332
000100 30 4b a4 3b d5 76 27 3d 66 c0 95 3d a1 4a 90 3d
       0.005013846 0.04088481 0.07312088 0.07045484
000110 17 41 83 3c a3 4a 83 3d ee 88 0d 3d 72 b3 87 3d
       0.016022248 0.0641072 0.034554414 0.06626023
000120 5f 1c ab bb 70 2d 07 bd 5f d9 6a 3d 88 52 05 be
       -0.005221888 -0.033002317 0.057336207 -0.13019764
000130 06 bb 50 bd ce ed 03 bd 14 ba 0e bd fd 8b 32 3c
       -0.05095961 -0.03220921 -0.034845427 0.010897634
000140 5b ef b0 bd 56 93 4b 3d 40 c9 c6 bd 98 e1 07 3e
       -0.086394034 0.049701057 -0.09706354 0.13269651
000150 2d ee 86 3d 5c 6a b9 bd de c7 02 bd b2 24 36 be
       0.06588397 -0.090534896 -0.03192889 -0.17787436
000160 94 14 b2 bc 12 a9 f3 3a 72 fc cd bc c8 73 36 bc
       -0.021738328 0.0018589816 -0.02514479 -0.011136003
000170 59 fd 35 be 29 d1 47 bd 15 f8 a0 3d 28 07 fc 38
       -0.17772426 -0.048783455 0.07859818 0.00012017629
000180 bc 02 15 be bf 38 59 3d d8 4f 25 3d 2e 8d 09 be
       -0.14551824 0.053032633 0.040359348 -0.13432762
000190 9a 28 04 bd 8d e1 9a 3d 77 3b b6 3d c6 3c 39 bc
       -0.032265283 0.07562552 0.08898061 -0.011305993
0001a0 78 39 57 3d 9f 03 ba 3c 1e f9 e8 bd b2 fb ce 3c
       0.05254504 0.022706805 -0.1137564 0.025266502
0001b0 4e 41 e4 3c 49 ef de bd 1a b7 20 be 89 f4 b4 3d
       0.027863171 -0.10885484 -0.15694848 0.08835704
0001c0 58 f8 50 bd f9 db 96 3d ec f6 83 3d 3a 47 bd 3d
       -0.05101809 0.07366175 0.06443581 0.09242101
0001d0 db bf b8 bc a2 96 f8 3c e9 76 98 bd bd 0b 80 bc
       -0.022552421 0.030345265 -0.07444555 -0.015630597
0001e0 7f 45 ff bd c8 da 67 3d 8f 00 0e bd ec 71 64 3c
       -0.12464427 0.05660513 -0.0346685 0.013943177
0001f0 9d 44 5d 3d 76 c2 78 bd da 15 b7 bd c5 56 0b 3d
       0.054020513 -0.060732327 -0.08939715 0.034018297
000200 0f e4 da bd 46 b3 41 3d ae 7a 77 bd 0d 7d c3 3d
       -0.1068803 0.04729011 -0.06041973 0.09545336
000210 45 82 a7 3d 91 ed f7 bd ff 9e 6e bb 2c 0b 03 3e
       0.08179144 -0.12105859 -0.0036410687 0.1279723
000220 be a9 20 bd 71 18 a9 3d d3 c1 e7 3d ee 5c 09 3e
       -0.03922438 0.08256615 0.11316266 0.13414356
000230 f8 ab ee 3d e4 e7 21 bd ea cc 18 3e 32 26 3a bb
       0.11653894 -0.03952779 0.14921919 -0.0028404114
000240 25 41 07 3c 8f 30 6e 3d 70 33 77 3d 31 fe c9 3c
       0.008255278 0.058151778 0.06035179 0.02465734
000250 31 d6 01 ba 79 da 1d be 53 90 9c 3d 9a 15 a4 bc
       -0.00049528765 -0.15415372 0.07644715 -0.020029832
000260 8d b0 27 3d 2d 47 73 bd 3e be 70 3c f9 1f 6e 3d
       0.040939856 -0.05939405 0.014693795 0.05813596
000270 9f ef db bc 66 15 b1 3d 9f ad c2 3d 61 97 d1 3d
       -0.026847659 0.086466596 0.09505772 0.10233951
000280 60 80 75 bd 08 64 95 3d 7d e2 f1 bd 2b 62 85 3d
       -0.05993688 0.0729447 -0.11810777 0.06512865
000290 56 87 8a bd a3 ba b1 3c ec ba c3 3c d3 6b 32 3d
       -0.067640945 0.02169544 0.023892842 0.04355986
0002a0 ed cd c3 bc e1 41 3a 3d 3e d6 d4 bd 26 5b 9e 3d
       -0.023901904 0.045472983 -0.10392426 0.07732229
0002b0 b1 da a4 bd b7 7d e9 bd d6 bd b8 bc 08 2d 23 bd
       -0.080495246 -0.11400931 -0.022551458 -0.039837867
0002c0 e0 e4 04 be 0e 82 0a 3d 9e d8 cf 3c 56 76 cf 3d
       -0.12977934 0.033815436 0.025371846 0.10129993
0002d0 cc ea 0a 3d 97 21 8f 3d 2d bb 21 3d 97 df c2 3b
       0.033915326 0.06988829 0.039485145 0.005947064
0002e0 00 79 3e 3c 9a 14 97 3d 80 b9 7a 3d a1 c1 f3 3d
       0.011625528 0.07376976 0.061212063 0.11902166
0002f0 9f f1 9f bc f8 5c 9e 3d c8 5a ae 3d 3e 9e 0f be
       -0.019524394 0.07732576 0.08513409 -0.14025208
000300 85 06 25 3e 8e b2 4a bd e2 e3 18 3d 9e 44 ac bd
       0.16115768 -0.04948669 0.0373267 -0.08411525
000310 0b d2 16 3d 65 5e 7c 3c f2 f0 08 3e ab d2 a5 bd
       0.036821406 0.015403365 0.13373163 -0.08096822
000320 6e 03 17 3d e5 49 dd 3d 91 8d 7a 3d 84 3f 73 bc
       0.036868505 0.1080511 0.061170164 -0.014846686
000330 e8 5a 94 bc 58 8f 33 3d a0 11 48 3d 4a a6 e8 3d
       -0.018109754 0.043837875 0.048844934 0.11359842
000340 93 55 3d 3d ea d2 87 bc 8c be d3 3c 3a 19 00 3c
       0.046224188 -0.016580064 0.025847696 0.0078185145
000350 45 7c 99 bd 94 59 f3 3d 6a 61 cd bc a1 aa 19 bd
       -0.07494406 0.1188232 -0.025070865 -0.03751624
000360 af 96 b8 3b e5 5a c1 3c 73 84 fd 3d f3 4e c3 3d
       0.0056331973 0.023602912 0.12378778 0.09536543
000370 02 86 63 bd af 02 fe bd 22 da 86 3d 5a aa d5 bd
       -0.05554772 -0.124028556 0.06584574 -0.104328826
000380 86 76 28 bd ba 47 5c 3d 18 01 e3 3c c6 45 e6 3c
       -0.041128658 0.05377934 0.027710482 0.028109442
000390 98 0c 5f be cd 52 7d bc f2 bc 18 bd 8a 4a db 3d
       -0.21782148 -0.015461636 -0.037289567 0.107075766
0003a0 2d f4 6d bd 4a dc b7 3d cd ac ed bd bd 17 31 be
       -0.058094192 0.08977564 -0.11605225 -0.17294212
0003b0 94 53 0a be 70 03 2c 3d a3 39 39 be ae 50 ca be
       -0.13508445 0.041995466 -0.18088393 -0.3951468
0003c0 4b 20 14 be 7d 50 13 3d 29 94 31 bd 3f c7 0d 3d
       -0.14465444 0.03596543 -0.043354187 0.034613844
0003d0 5e 58 18 be 28 79 02 3e 37 53 0f 3e fe 64 2c bd
       -0.1487746 0.1274153 0.13996588 -0.0420885
0003e0 d4 fa fa bc 8d fe 2a 3d 49 4f 10 3e 6c 06 16 3e
       -0.030637182 0.041746665 0.14092745 0.14650887
0003f0 8f 37 83 bd fd 10 92 bd 53 98 e9 bc 72 aa 16 bd
       -0.06407081 -0.071321465 -0.028515017 -0.036783643
